code-implementations/day-2/models/model.pth (torch, 3124 bytes, 5 tensors)

layer_1.weight f4 [10, 2]
0	0x3ebe64d3	0.37186298
1	0x3f775faf	0.96630377
2	0xbc737470	-0.014859304
3	0x3f37ee02	0.71847546
4	0xbde97028	-0.11398345
5	0x3effa839	0.4993303
6	0x3c3b2476	0.011422267
7	0x3f71374d	0.9422501
8	0x3f523f30	0.82127666
9	0xbf585b0c	-0.84513927
10	0x3f0f795a	0.5604454
11	0xbd9f9d77	-0.07793706
12	0x3f270692	0.652444
13	0x3cfbbbe6	0.030729245
14	0x3f22db7d	0.6361616
15	0xbcb76b14	-0.022389926
16	0x3ef8bf2c	0.48583353
17	0x3ebfd1cb	0.37464747
18	0xbf7d5ba3	-0.9896795
19	0x3e34f2ef	0.17670797

layer_1.bias f4 [10]
0	0xbf91bf6e	-1.1386545
1	0xbe6ef777	-0.23336588
2	0xbe6a607d	-0.2288837
3	0x3ed50fdc	0.41613662
4	0xbeff1ab6	-0.49825066
5	0xbe89d3fb	-0.2691954
6	0x3d13da9f	0.036097165
7	0xbea2ea49	-0.3181937
8	0x3e921c8b	0.28537402
9	0xbf8ceec6	-1.1010368

layer_2.weight f4 [10, 10]
0	0x3e4d5e73	0.20055561
1	0xbe93fd50	-0.289042
2	0x3e5b8d19	0.21440543
3	0x3dd386d5	0.103284515
4	0xbe2f13af	-0.17097352
5	0x3e14b3fc	0.14521784
6	0x3c90d5da	0.017680097
7	0x3e5ee89f	0.21768425
8	0x3d002687	0.031286743
9	0xbe43dfee	-0.19128391
10	0x3f1d6eff	0.6149749
11	0x3e3279a5	0.17429216
12	0x3e714816	0.23562655
13	0x3e156be8	0.14591944
14	0x3f08b141	0.5339547
15	0x3e4ce89c	0.20010608
16	0x3f10bcb1	0.5653792
17	0x3e690dbf	0.2275915
18	0x3f1d8155	0.6152547
19	0xbe3ba051	-0.18322875
20	0xbedb1607	-0.42790243
21	0xbc6f7f9a	-0.014617825
22	0xbe938d62	-0.28818804
23	0x3f1bb8bf	0.60828775
24	0xbe74f559	-0.23921718
25	0x3d5c9d17	0.05386075
26	0x3db4ee2e	0.08834492
27	0xbda12728	-0.078687966
28	0x3ed5cad8	0.4175632
29	0xbf209bf6	-0.6273798
30	0xbe3ad9db	-0.18247168
31	0xbedd4100	-0.43213654
32	0x3c5a9023	0.013340029
33	0xbee9c93d	-0.45661345
34	0x3e713550	0.23555493
35	0xbdeeb599	-0.11655731
36	0x3e3403e0	0.17579603
37	0xbe5e4de7	-0.21709405
38	0xbed9b679	-0.42522028
39	0xbd71d447	-0.059040334
40	0x3f635080	0.8879471
41	0x3f1c8ed5	0.61155444
42	0x3f0c9fca	0.5493132
43	0x3e19bf90	0.15014482
44	0xbf0e73c8	-0.5564542
45	0xbe1ced3c	-0.15324873
46	0xbd909f59	-0.07061643
47	0x3dd43320	0.10361314
48	0x3eb3a912	0.35089928
49	0x3f07a771	0.5298987
50	0xbe0f39d5	-0.13986905
51	0xbe4ba8a0	-0.19888544
52	0x3e36aa67	0.17838441
53	0xbe16514c	-0.1467945
54	0x3e535b08	0.20640194
55	0xbd978648	-0.07398659
56	0x3e399f2d	0.18127127
57	0xbe81cad0	-0.25350046
58	0xbe337d47	-0.17528258
59	0x3ddf2ee9	0.10897619
60	0xbd8c864f	-0.06861555
61	0xbe11fad8	-0.14255846
62	0x3dc57c26	0.0964282
63	0x3ea7292f	0.32648608
64	0xbe9a9d9d	-0.30198374
65	0xbe4179c2	-0.18894103
66	0x3e9faea8	0.3118794
67	0xbdfca90f	-0.12336933
68	0xbbb85500	-0.005625367
69	0xbf1fa1c7	-0.6235623
70	0xbdfd8a9b	-0.123799525
71	0x3dbed36e	0.09317671
72	0xbd1517ee	-0.036399774
73	0xbe981731	-0.29705194
74	0x3d800bae	0.06252228
75	0xbe43dad8	-0.19126451
76	0xbe8a162a	-0.26970035
77	0xbe255054	-0.16143924
78	0xbe980c22	-0.29696757
79	0xbdc19e58	-0.0945403
80	0x3e28f24c	0.16498679
81	0xbcbbc09a	-0.022918988
82	0x3cfcaba8	0.03084357
83	0xbe8acb0a	-0.27108032
84	0xbe90120c	-0.2813877
85	0xbdf0aebe	-0.117520794
86	0x3d9de616	0.07709901
87	0xbe91836e	-0.28420585
88	0xbd6daa65	-0.05802383
89	0xbec61251	-0.3868585
90	0x3e51b935	0.20480807
91	0x3dfc4e13	0.12319579
92	0x3e2fcd7c	0.1716823
93	0xbe17339f	-0.14765786
94	0xbec31eab	-0.38109335
95	0xbebb2abe	-0.36556047
96	0xbe9f735c	-0.311427
97	0xbecee806	-0.40411395
98	0x3dab818b	0.08374318
99	0x3e9a0308	0.30080438

layer_2.bias f4 [10]
0	0x3ea34595	0.31889024
1	0x3ebfc589	0.37455395
2	0xbe881fc0	-0.26586723
3	0x3dc2434d	0.09485493
4	0x3ebb6c68	0.36606145
5	0xbe209933	-0.15683441
6	0xbe60cf14	-0.21953994
7	0xbebcbadd	-0.36861315
8	0x3d99d15d	0.07510636
9	0xbc46534d	-0.012104821

layer_3.weight f4 [1, 10]
0	0x3dfbd8f3	0.12297239
1	0xbf9e3804	-1.2360845
2	0x3f79050f	0.97273344
3	0xbf383788	-0.71959734
4	0xbfac5bfc	-1.3465571
5	0x3e2705f4	0.16310865
6	0x3f21e352	0.6323749
7	0xbe9bd79c	-0.30437934
8	0x3eb653bc	0.3561076
9	0xbf3772dc	-0.71659636
